assets/model.tflite (tflite, 18888 bytes, 4 tensors)

sequential/dense_1/BiasAdd/ReadVariableOp f4 [2]
00000000: 93ec a63c 8bec a6bc
0.02037648 -0.020376464

sequential/dense/BiasAdd/ReadVariableOp f4 [100]
00000000: 0000 0000 da6d 2b3c 0000 0000 2ec8 a6bc
00000010: 4434 203c 460e 583c 5cef 243c 0000 0000
00000020: 0000 0000 0000 0000 1998 5bbc 389a c4bc
00000030: 0000 0000 f871 3fbd 0000 0000 0000 0000
00000040: 21aa c7bc cda5 59bc 7ce1 823c b35b cfbc
00000050: 0000 0000 b373 c9bc 3857 67bc a4b9 12bd
00000060: d930 bbbc 2a2b d1bc 59c4 1d3e 2561 903d
00000070: 5425 71bd 0000 0000 1038 d8bc b695 6fbd
00000080: b563 dabc 99c4 4bbc 67a5 823c 9042 bfbc
00000090: 0717 903c 0000 0000 a4ab b7bc 0000 0000
000000a0: ccfa 7a3c 0540 9fbc 0000 0000 855c a8bc
000000b0: c925 63bc 4bd9 e8bb 0000 0000 7dc4 94bc
000000c0: 75bb 94bb 403c 45bc 6e4d a73b 957f cabc
000000d0: b815 893c d425 99bb 320f aebd 096c 483d
000000e0: 0000 0000 2c49 11bd 16bf 20bd be26 153a
000000f0: 5a00 1cbc 5485 c6bc ae67 6b3c 1620 553c
00000100: 0000 0000 0000 0000 11ef e8bc 0000 0000
00000110: 803c 4cb6 40d9 c2bc f872 adbc aca6 52bc
00000120: 0000 0000 3d79 433d 7ed8 383d 6ce0 d7bc
00000130: 0000 0000 0000 0000 0000 0000 c994 77bc
00000140: c97e cf3c d396 56bc d03a 543c 1f08 473c
00000150: 0000 0000 f51f 2dbc 6069 8d3c ebff ccbc
00000160: c1fc 5d39 658a 863c 0000 0000 0000 0000
00000170: 0000 0000 0000 0000 8051 bfb6 0000 0000
00000180: b6cb 80bb 443d 1fbd 6cf0 333c b8db 3c3b
0.0 0.010463202 0.0 -0.020359125 0.009778086 0.013186997 0.010066833 0.0
0.0 0.0 -0.013402962 -0.023999318 0.0 -0.04673955 0.0 0.0
-0.024373116 -0.013284159 0.01597666 -0.02531228 0.0 -0.024591302 -0.014119916 -0.035821572
-0.02285044 -0.025533278 0.15406932 0.07049779 -0.05887349 0.0 -0.02639392 -0.058492385
-0.026658872 -0.012437009 0.01594801 -0.02334717 0.017589105 0.0 -0.022420712 0.0
0.015318584 -0.019439707 0.0 -0.02055193 -0.013863989 -0.0071059815 0.0 -0.0181601
-0.004538948 -0.0120382905 0.005105666 -0.024719039 0.01673399 -0.004673699 -0.08498992 0.048931155
0.0 -0.035470173 -0.039244734 0.0005689672 -0.009521568 -0.024233498 0.014367981 0.013008138
0.0 0.0 -0.028434308 0.0 -3.0433584e-06 -0.023785233 -0.021172985 -0.0128571205
0.0 0.047723044 0.045128338 -0.02635213 0.0 0.0 0.0 -0.015111157
0.02532901 -0.013097483 0.012953475 0.012147932 0.0 -0.010566701 0.01726216 -0.025024375
0.0002117036 0.016423414 0.0 0.0 0.0 0.0 -5.7017314e-06 0.0
-0.0039305342 -0.038876787 0.010982614 0.0028817486

sequential/dense/MatMul f4 [100, 40]
00000000: 7ff8 4e3e e79f b2bd 4444 4abe f8a0 1cbe
00000010: dea1 923d 9f62 143e 3b5c 143e 22da 23be
00000020: 3bf6 343e 47a9 2d3e 87ec 023e 8002 e63c
00000030: dfef 4f3e b963 c6bd 5603 1cbe dadd 04be
00000040: 8003 28bd 2ea6 40be 9684 8b3d 1a3c 86bd
00000050: 7471 57bd d368 023e 543a 08bd b65f 87bd
00000060: 6692 cd3d 5bf5 cebd bc12 273d 27f0 c5bd
00000070: e86b f9bc 9e8b a13d 42c5 ebbd 9a05 9d3d
00000080: 153a 243e cb24 30be 1b6f 013e 14de 55bd
00000090: 38d5 81bd 7415 7fbd f167 4b3e ac83 92bd
000000a0: acbd 0a3d 90d7 d23c 5d1d 303c 07d6 0b3d
000000b0: 731b abbd 2c25 c1bd 0cf2 4ebe a0d9 66be
000000c0: 0522 05bb b025 cd3a f031 3b3c cecb 353e
000000d0: 5b4b 9e3b e82b ea3d 5166 d1bd 826f 08bd
000000e0: 6b63 cc3d ad16 0f3e ecce ebbd a8c7 ec3d
000000f0: 5a6b bebd f4db 66be 19ec 593e 7a2b b93e
00000100: 5228 2abd ae40 2bbe 28b7 dabb d525 9f3e
00000110: 023e 2b3c 7f7c 52be b4bd 8d3e 95ce 473e
00000120: 296b 79bc a93a 80be fdc5 073e e9dc a2be
00000130: e795 5bbd 1c3e 19be 7356 d53e 0e19 edbe
00000140: 503d 2f3d 628a 02be a966 f1bd c26b 8e3d
00000150: 8daa 3b3e 9456 5d3d 4cba 00be f6d9 d43d
00000160: 33b4 26be f988 173e 7f5d 2a3e 2bac ffbd
00000170: 14c4 283d f51d 34be 99aa 063e 66ce 8e3d
00000180: 9b9e dfbd c416 5abd 0d05 223e f2da acbd
00000190: ad01 1e3e 3eb0 12be 6e9e 37be e2fd b93d
000001a0: f274 09be cada 953d 0024 5fbc 0619 4cbe
000001b0: b489 09bd 2fa7 efbd f435 28be 405a 4e3c
000001c0: 2196 483e f063 98bc d0da 90bc 8bd5 343e
000001d0: 9873 51bd b3e3 1bbe 391a 3ebe cbaf 053e
000001e0: f770 b0bd 3419 42be b9ac 4a3d 9446 0f3d
000001f0: 3755 3c3d 9e57 25be ab43 ea3c 0865 613c
00000200: 530e 1bbc 5f1a 46be 400a 393e c010 383c
00000210: 0540 083d 817e ed3d 0b66 08bd 1214 5a3c
00000220: 3823 e3bd 30ed 13be ed03 c1bd ebf7 553e
00000230: d0b9 4bbe 2057 8c3d 7dd0 1f3e 87a9 873d
00000240: 6998 d5bd 0608 b93d bd28 8fbd 99d9 293e
00000250: 5ca8 0bbe e378 ac3d 440e d53d 20dd d33d
00000260: 93db fc3d d395 093c 1b71 c4bc 5753 b3bd
00000270: cd2c 193e 2653 29be 763b 0f3e 347d 8fbe
00000280: 83db f7bd a5bd 53be 6000 a9bd 272a 9fbd
00000290: 49cc 0fbe fd1e 743d b0e7 8dbd 4b6d 8fbc
000002a0: 9347 4c3d c7ad e73c 97ae 76bd 60b5 483e
000002b0: 3e04 15be 9b99 f23d 0d89 843d 7711 293e
000002c0: a151 ab3d 808b 20be a523 fabd c0d3 47be
000002d0: fccd 0ebe d0b6 d63d f7b2 823c 18c6 383e
000002e0: 76a3 14bd 2bd2 3c3e 582e b63d e6f9 593e
000002f0: 72d8 b5bd 11dd ae3d 4eac f33d 1269 a63c
00000300: fd3d 1f3e 2c5e 18be ecb5 20bd d94b df3d
00000310: 2939 f7bd 9977 283e 3503 b6bc 629c 9e3d
00000320: b189 82bc f25d 303e 92f2 a3bc f85a debd
00000330: c039 473e 26ff 1b3e 0f72 cdbd 12ad 513e
00000340: b0f3 8bbd b32f 633e ee7b 72bd ac8c 953c
00000350: 0b0b 3bbc f325 9d3d 3b88 f53d 8628 3a3e
00000360: e397 72bd b1f2 45be 93da 8ebd 72a3 0d3e
00000370: a6e9 31be 99a2 153e dcf9 afbc 5fda e53c
00000380: 8a4c ad3d 5d99 b9bb 149b 8e3d aae5 c73d
00000390: 32e4 d33d f3bf c5bd 98c1 91bd faaa 723c
000003a0: f17c e63c ad22 873d 688b 183e fe79 88bd
000003b0: a7b8 433e e4f8 adbd a31b 0e3e 6b72 c1bd
000003c0: e13d 31be a306 ccbd 4e15 a4bd 1b76 033e
000003d0: 6447 05be fc5c 84bd 6836 b03d a571 df3d
000003e0: 82fc 1a3e ae02 5dbd d418 f8bd 4c12 2a3d
000003f0: 810f 5e3d c6bf fdbd 47fe 99bc d12d 0fbd
0.20211981 -0.08721905 -0.19752604 -0.1529578 0.0715978 0.14490746 0.14488308 -0.1600118
0.17672054 0.16959105 0.1278554 0.028077364 0.20306347 -0.09686989 -0.15235648 -0.12975255
-0.041018963 -0.18813393 0.06812398 -0.06554432 -0.05259843 0.127353 -0.03325875 -0.06610052
0.10037689 -0.101053916 0.04078935 -0.09664946 -0.030446962 0.07887958 -0.11512233 0.07667084
0.16037782 -0.17201535 0.1264004 -0.052213743 -0.063394964 -0.06227632 0.19863869 -0.07154021
0.03387229 0.025737554 0.010749188 0.03413966 -0.08354845 -0.09430918 -0.20209521 -0.22543955
-0.0020314467 0.001565149 0.01142548 0.17753527 0.0048307604 0.11434156 -0.102245934 -0.033309467
0.099799 0.13973494 -0.115140766 0.11561519 -0.092978194 -0.22544843 0.2128147 0.36165982
-0.04154236 -0.16723892 -0.006674666 0.3108355 0.0104517955 -0.20555304 0.27683794 0.19512399
-0.015223303 -0.25044754 0.1325912 -0.31809166 -0.053609755 -0.14965099 0.41667518 -0.46308178
0.04278308 -0.12748101 -0.11787159 0.06954147 0.18326779 0.054037645 -0.12571067 0.10393135
-0.16279678 0.14798345 0.16637228 -0.1248401 0.04120262 -0.17589553 0.13151015 0.06972961
-0.109189235 -0.053244367 0.15822239 -0.08440198 0.15430327 -0.14325044 -0.1793153 0.090816274
-0.13423517 0.07317121 -0.013619423 -0.1993142 -0.03357859 -0.117018096 -0.16426831 0.012594759
0.1958852 -0.018602341 -0.017682463 0.17659585 -0.05113563 -0.15223579 -0.1856469 0.13055341
-0.08615296 -0.18954927 0.049481127 0.034979418 0.045979705 -0.16146705 0.02859672 0.013756998
-0.009463864 -0.19345997 0.18070316 0.011234462 0.03326418 0.11596394 -0.03330044 0.013310449
-0.11090702 -0.14445949 -0.09424577 0.20895354 -0.198951 0.06852555 0.15606876 0.06624132
-0.104294606 0.090347335 -0.06990192 0.16586913 -0.13638443 0.08421495 0.104031116 0.103449106
0.12346568 0.008397537 -0.023979714 -0.0875613 0.14958496 -0.16535625 0.13987526 -0.2802521
-0.121024154 -0.20677812 -0.08252025 -0.07771712 -0.14042772 0.059599865 -0.069289565 -0.01750817
0.049872946 0.028281106 -0.060225096 0.19600439 -0.145524 0.11845704 0.06471453 0.16510569
0.08365179 -0.15678215 -0.1221383 -0.1951437 -0.13945764 0.104840875 0.015954478 0.18044317
-0.0362887 0.18439548 0.08895558 0.21286735 -0.08879174 0.08538259 0.11898099 0.020313773
0.1555099 -0.14879674 -0.039235994 0.10903139 -0.12071449 0.16451873 -0.022218326 0.077446714
-0.015934797 0.17223337 -0.020013127 -0.10857195 0.19455624 0.1523405 -0.100315206 0.20476177
-0.06833589 0.22186165 -0.05920022 0.018255554 -0.011416207 0.07673254 0.119888745 0.18179521
-0.05922688 -0.1933086 -0.069752835 0.1383188 -0.17374286 0.14612807 -0.021481447 0.028058229
0.08461864 -0.0056640343 0.069631726 0.09760602 0.10346259 -0.09655752 -0.07117003 0.014811272
0.028135749 0.06598411 0.1489693 -0.06663893 0.19113408 -0.08494738 0.1387773 -0.094456516
-0.17308761 -0.09962203 -0.08011876 0.12838022 -0.13015515 -0.06463048 0.08604127 0.10910348
0.15135387 -0.053957634 -0.121141106 0.041521356 0.054214004 -0.123900935 -0.018798007 -0.034955803

sequential/dense_1/MatMul f4 [2, 100]
00000000: e46a 8e3d b4c3 2ebe 0827 b4bd 32c0 dfbd
00000010: fc3c e43d 3d3d 3d3e 40b6 593d b098 75bd
00000020: f357 69be 4041 a73b df2b 323e b466 48bb
00000030: 9868 c83d d7a2 1c3e 7802 333e ea84 323e
00000040: 4b83 953a d70c 0dbd 9bb0 143e 4e9c 92bd
00000050: 001a 173a d967 f4bd 750d d33d 3247 c3bd
00000060: e939 34be bca9 56be 9efb 9bbe 11f2 52be
00000070: 3bc8 963d 8b3e 71be 40c5 a13c 21db 303e
00000080: 4c23 2d3d 0ba5 a93d 84d0 dcbb 85ac cebb
00000090: 4c3c 4c3e 383f 353e be9d 383c 0c8b 683e
000000a0: 6914 193e 8c57 31be 7866 48bd ba07 003e
000000b0: 9105 523e 38e0 48be 5409 7bbd 174f 5ebd
000000c0: c28d d5bd 685f e33d aa4e 1e3e 5115 60be
000000d0: 55e0 743d a289 07be c7c0 693e 0d25 8d3e
000000e0: bc2f 92bd eab3 4ebb bb3c 943c f37c 0b3e
000000f0: 663f 3a3e b16c 13be 0b8c 663e 39db 5b3e
00000100: 44d5 4c3e 8a9b 063e 3f23 6e3d c0bb 7c3c
00000110: afab 19bd a745 5fbe b019 423e dcdf ddbe
00000120: 4020 5d3e b069 86be d717 443e 8e44 be3d
00000130: 80bb 07bb fad8 85bd c238 643e 9505 8b3b
00000140: c4b8 3b3d 8b52 f13d 518f 7c3e 5643 bf3d
00000150: 80de d53d d83a 90bd 2ec3 4b3e ce84 87bb
00000160: 97da 6dbd 1c04 2b3d 5ed7 c9bd 40c5 0e3b
00000170: c42e 90bd d4d5 b53d 6f32 5d3e 003f 6f3b
00000180: 52fd 733e 810b 84bd 0d5e 23bd c15a 2abe
00000190: a0be 2cbe bca6 c23c 5a90 72be 2ac5 c73d
000001a0: 9b16 49bd 7f14 b53d 590b 3ebd 3029 05be
000001b0: ccdf 69be 6002 303e 5b3e c3bd f777 233e
000001c0: d446 273e 0146 343e 3885 ef3d e309 08be
000001d0: cd10 663e be8b 693e 1fa3 c0bd 850f df3d
000001e0: 4cb9 093e 3a09 febc 3439 293e 8140 913e
000001f0: 9ea1 473e ec95 19bd a0c5 2f3f 2675 c53e
00000200: 2b6a 533e 8caf bb3d d7bc 123e 791d 343e
00000210: 550b 433e 0603 5a3d 042c 68be bcbe 1f3b
00000220: 1784 44be d631 373e 86b1 453e 8e75 32be
00000230: 2f12 6abd 49d5 2c3e 1cf0 853d 02cc 58be
00000240: 52b2 5bbe 248a 293e b0ec 94bd 6009 063e
00000250: fa8e 433e 34fc dd3d 88e0 b03d 93c9 f1bc
00000260: 808a 6abe 44a5 28be 6901 5a3e 9271 91bd
00000270: b00c 443d 6097 58bc 51c8 c53e 71a8 bc3d
00000280: c093 233e 901c f83d e94f dabd d688 9e3d
00000290: 104c 0a3e e2a2 04be 9009 373e f6d4 e5bd
000002a0: 4c2c bbbd 4dab 4b3d 3d49 3e3e df00 a23d
000002b0: 158c 4fbe 71b7 b0bc 63e4 d0bd c4f1 003e
000002c0: 6a11 23be 1f2b 6abe 0487 4cbd 28d3 cbbd
000002d0: 677b 65be a21d c1be d6e1 c0be 9633 9abe
000002e0: f083 5c3e b956 233e 213d 17be c3ab 593e
000002f0: f5a6 e8bd e862 62be 74dd 4f3e 9056 56be
00000300: 30ff 3d3d 40e4 19bc 854b 363e 06ce 453e
00000310: 6427 513e f6f3 bdbc e3f0 18be cb89 54be
0.069539815 -0.17066842 -0.08796507 -0.1092533 0.11144444 0.18480392 0.053152323 -0.059960067
-0.22787456 0.005104214 0.17399548 -0.0030578794 0.09785575 0.15296493 0.1748141 0.17433515
0.0011406926 -0.034436073 0.14520495 -0.07158719 0.0005764067 -0.1193387 0.10305301 -0.09535064
-0.17600216 -0.20963186 -0.30465406 -0.20600154 0.0736241 -0.23559014 0.019747376 0.17271091
0.04226999 0.082834326 -0.006738724 -0.006307187 0.19944876 0.17699897 0.011268077 0.22709292
0.14949192 -0.17318553 -0.048925847 0.12502947 0.20509936 -0.19616783 -0.061288193 -0.054274645
-0.10427429 0.11102182 0.15459695 -0.21883132 0.059784252 -0.13236097 0.22827445 0.2756733
-0.07138011 -0.0031540343 0.018095365 0.13621883 0.18188247 -0.14396931 0.2251436 0.21470346
0.2000323 0.13145271 0.058139082 0.015425622 -0.037517246 -0.21803914 0.18955112 -0.43334854
0.21594334 -0.26252508 0.19149719 0.092904195 -0.0020711124 -0.065355256 0.22287276 0.004242609
0.045830503 0.11783322 0.24664046 0.09339015 0.10442829 -0.070424736 0.19898674 -0.0041357046
-0.05806979 0.041751966 -0.09855531 0.002178505 -0.0704017 0.08878675 0.2160127 0.0036506057
0.23827103 -0.06447507 -0.039884616 -0.16636182 -0.16869593 0.023761146 -0.23687878 0.09754403
-0.049093824 0.088418 -0.04639754 -0.13003993 -0.22839278 0.17188406 -0.09533378 0.15963732
0.16335613 0.1760483 0.11695331 -0.13285021 0.22467346 0.22807214 -0.09406113 0.10891632
0.13449591 -0.031010259 0.16525728 0.28369525 0.19495246 -0.037496492 0.68660927 0.3856594
0.20645969 0.09164342 0.14329849 0.17589368 0.19047292 0.05322554 -0.2267304 0.002437516
-0.19191013 0.17890105 0.19306001 -0.17427656 -0.057146247 0.16878237 0.06539938 -0.21171573
-0.21454743 0.16556603 -0.07271707 0.13089514 0.1909751 0.108391196 0.08636576 -0.029515063
-0.22904396 -0.16469294 0.212896 -0.0710174 0.047863662 -0.013219684 0.38629392 0.09211815
0.15974331 0.12114823 -0.10659773 0.07740943 0.13505578 -0.1295276 0.17874742 -0.1122226
-0.09139308 0.049723912 0.18582626 0.079103224 -0.20268281 -0.021571847 -0.10199811 0.12592226
-0.15924612 -0.22868012 -0.04993345 -0.09952384 -0.22410356 -0.3771792 -0.376723 -0.30117482
0.21534705 0.15951051 -0.14769413 0.21256928 -0.113599695 -0.22108042 0.20299321 -0.20931458
0.046385944 -0.009392798 0.17802246 0.19316873 0.20425183 -0.023187619 -0.14935641 -0.20755689
